…
   self.pool = nn.Sequential(\n        AdaptiveConcatPool2d(size=1),\n        nn.Flatten())\n    \n    # Linear Classifiers\n    # the first layer is is double the last conv layer output\n    # because our adaptive pool concats avg and max pool\n    self.lin = nn.Sequential(\n        linear_classifier(128, 256),\n        linear_classifier(256, 128),\n        linear_classifier(128, 8))\n  \n  def forward(self, x):\n    x = self.conv_layers(x)\n    x = self.pool(x)\n    x = self.lin(x)\n\n    return x\n\n\nnet = Net()\n\n\nnet\n\nNet(\n  (conv_layers): Sequential(\n    (0): Sequential(\n      (0): Conv2d(2, 8, kernel_size=(5, 5), stride=(2, 2), padding=(2, 2))\n      (1): ReLU()\n      (2): BatchNorm2d(8, eps=1e-05, momentum=0.1, affine=True, track_running_stats=True)\n    )\n    (1): Sequential(\n      (0): Conv2d(8, 16, kernel_size=(3, 3), stride=(2, 2), padding=(1, 1))\n      (1): ReLU()\n      (2): BatchNorm2d(16, eps=1e-05, momentum=0.1, affine=True, track_running_stats=True)\n    )\n    (2): Sequential(\n      (0): Conv2d(16, 32, kernel_size=(3, 3), stride=(2, 2), padding=(1, 1))\n      (1): ReLU()\n      (2): BatchNorm2d(32, eps=1e-05, momentum=0.1, affine=True, track_running_stats=True)\n    )\n    (3): Sequential(\n      (0): Conv2d(32, 64, kernel_size=(3, 3), stride=(2, 2), padding=(1, 1))\n      (1): ReLU()\n      (2): BatchNorm2d(64, eps=1e-05, momentum=0.1, affine=True, track_running_stats=True)\n    )\n  )\n  (pool): Sequential(\n    (0): AdaptiveConcatPool2d(\n      (ap): AdaptiveAvgPool2d(output_size=1)\n      (mp): AdaptiveMaxPool2d(output_size=1)\n    )\n    (1): Flatten(start_dim=1, end_dim=-1)\n  )\n  (lin): Sequential(\n    (0): Sequential(\n      (0): BatchNorm1d(128, eps=1e-05, momentum=0.1, affine=True, track_running_stats=True)\n      (1): Dropout(p=0.25, inplace=False)\n      (2): Linear(in_features=128, out_features=256, bias=True)\n    )\n    (1): Sequential(\n      (0): BatchNorm1d(256, eps=1e-05, momentum=0.1, affine=True, track_running_stats=True)\n      (1): Dropout(p=0.25, inplace=False)\n      (2): Linear(in_features=256, out_features=128, bias=True)\n    )\n    (2): Sequential(\n      (0): BatchNorm1d(128, eps=1e-05, momentum=0.1, affine=True, track_running_stats=True)\n      (1): Dropout(p=0.25, inplace=False)\n      (2): Linear(in_features=128, out_features=8, bias=True)\n    )\n  )\n)"
  },
  {
    "objectID": "posts/learning-from-sound/respiratory-sounds.html#training-the-model",
    "href": "posts/learning-from-sound/respiratory-sounds.html#training-the-model",
    "title": "learning from sound",
    "section": "Training The Model",
    "text": "Training The Model\nFinally after all our pipilining and modelling proces
…
.Conv2d(ni, nf, kernel_size=ks, stride=stride, padding=ks//2, \n                          bias=False))\n  norm = nn.BatchNorm2d(nf)\n  # if identity conv block, init gamma to zero and no activation\n  if identity == True:\n    nn.init.zeros_(norm.weight)\n    layers.append(norm)\n    return nn.Sequential(*layers)\n  # normal conv block\n  else:\n    layers.append(norm)\n    layers.append(nn.ReLU())\n    return nn.Sequential(*layers)\n\nWe can test out a few setups for intuiton. First, we return a normal ConvLayer (not an identity):\n\nConvLayer(3, 32, 3, 2, identity=False)\n\nSequential(\n  (0): Conv2d(3, 32, kernel_size=(3, 3), stride=(2, 2), padding=(1, 1), bias=False)\n  (1): BatchNorm2d(32, eps=1e-05, momentum=0.1, affine=True, track_running_stats=True)\n  (2): ReLU()\n)\n\n\nAnd then an identity ConvLayer:\n\nConvLayer(3, 32, 3, 2, identity=True)\n\nSequential(\n  (0): Conv2d(3, 32, kernel_size=(3, 3), stride=(2, 2), padding=(1, 1), bias=False)\n  (1): BatchNorm2d(32, eps=1e-05, momentum=0.1, affine=True, track_running_stats=True)\n)\n\n\nNow, according to the image above, a ResNet Block will always consist of a normal weight layer followed by an identity weight layer so we can create a function that return that block of code:\n\ndef _conv_block(ni, nf, ks, stride):\n  return nn.Sequential(\n      ConvLayer(ni, nf, ks, stride),\n      ConvLayer(nf, nf, ks, stride=1, identity=True)\n  )\n\nAgain, we can test it out to get an intuition of how it works:\n\n_conv_block(3, 32, 3, 2)\n\nSequential(\n  (0): Sequential(\n    (0): Conv2d(3, 32, kernel_size=(3, 3), stride=(2, 2), padding=(1, 1), bias=False)\n    (1): BatchNorm2d(32, eps=1e-05, momentum=0.1, affine=True, track_running_stats=True)\n    (2): ReLU()\n  )\n  (1): Sequential(\n    (0): Conv2d(32, 32, kernel_size=(3, 3), stride=(1, 1), padding=(1, 1), bias=False)\n    (1): BatchNorm2d(32, eps=1e-05, momentum=0.1, affine=True, track_running_stats=True)\n  )\n)\n\n\n\n\nCode\ndef noop(x=None):\n  return x\n\n\nFinally, we can create the logic of the ResNet block of code. The forward loop will be equal to x + _conv_block(x) then passed through the ReLU, just like the picture we had above\nBut we should also handle for two cases that may arise:\n\nIf the number of inputs (ni) is di
…
 stride=1),\n        ResBlock(128, 256),\n        ResBlock(256, 256, stride=1),\n        ResBlock(256, 512),\n        ResBlock(512, 512, stride=1))\n    self.avgpool = nn.AdaptiveAvgPool2d(1)\n    self.linear = nn.Linear(512, 10)\n  \n  def forward(self, x):\n    out = self.convs(x)\n    out = self.avgpool(out)\n    out = nn.Flatten()(out)\n    out = self.linear(out)\n    return out\n\nWe can instantiate our Module and see if its layers match the Resnet-18 layer structure by the researchers:\n\nresnet18 = Resnet18()\nresnet18\n\nResnet18(\n  (convs): Sequential(\n    (0): Sequential(\n      (0): Conv2d(3, 64, kernel_size=(7, 7), stride=(2, 2), padding=(3, 3), bias=False)\n      (1): BatchNorm2d(64, eps=1e-05, momentum=0.1, affine=True, track_running_stats=True)\n      (2): ReLU()\n    )\n    (1): MaxPool2d(kernel_size=3, stride=2, padding=0, dilation=1, ceil_mode=False)\n    (2): ResBlock(\n      (convs): Sequential(\n        (0): Sequential(\n          (0): Conv2d(64, 64, kernel_size=(3, 3), stride=(1, 1), padding=(1, 1), bias=False)\n          (1): BatchNorm2d(64, eps=1e-05, momentum=0.1, affine=True, track_running_stats=True)\n          (2): ReLU()\n        )\n        (1): Sequential(\n          (0): Conv2d(64, 64, kernel_size=(3, 3), stride=(1, 1), padding=(1, 1), bias=False)\n          (1): BatchNorm2d(64, eps=1e-05, momentum=0.1, affine=True, track_running_stats=True)\n        )\n      )\n    )\n    (3): ResBlock(\n      (convs): Sequential(\n        (0): Sequential(\n          (0): Conv2d(64, 64, kernel_size=(3, 3), stride=(1, 1), padding=(1, 1), bias=False)\n          (1): BatchNorm2d(64, eps=1e-05, momentum=0.1, affine=True, track_running_stats=True)\n          (2): ReLU()\n        )\n        (1): Sequential(\n          (0): Conv2d(64, 64, kernel_size=(3, 3), stride=(1, 1), padding=(1, 1), bias=False)\n          (1): BatchNorm2d(64, eps=1e-05, momentum=0.1, affine=True, track_running_stats=True)\n        )\n      )\n    )\n    (4): ResBlock(\n      (convs): Sequential(\n        (0): Sequential(\n          (0): Conv2d(64, 128, kernel_size=(3, 3), stride=(2, 2), padding=(1, 1), bias=False)\n          (1): BatchNorm2d(128, eps=1e-05, momentum=0.1, affine=True, track_running_stats=True)\n          (2): ReLU()\n        )\n        (1): Sequential(\n          (0): Conv2d(128, 128, kernel_size=(3, 3), stride=(1, 1), padding=(1, 1), bias=False)\n          (1): BatchNorm2d(128, eps=1e-05, momentum=0.1, affine=True, track_running_stats=True)\n        )\n      )\n      (idconv): Conv2d(64, 128, kernel_size=(1, 1), stride=(1, 1))\n      (pool): AvgPool2d(kernel_size=2, stride=2, padding=0)\n    )\n    (5): ResBlock(\n      (convs): Sequential(\n        (0): Sequential(\n          (0): Conv2d(128, 128, kernel_size=(3, 3), stride=(1, 1), padding=(1, 1), bias=False)\n          (1): BatchNorm2d(128, eps=1e-05, momentum=0.1, affine=True, track_running_stats=True)\n          (2): ReLU()\n        )\n        (1): Sequential(\n          (0): Conv2d(128, 128, kernel_size=(3, 3), stride=(1, 1), padding=(1, 1), bias=False)\n          (1): BatchNorm2d(128, eps=1e-05, momentum=0.1, affine=True, track_running_stats=True)\n        )\n      )\n    )\n    (6): ResBlock(\n      (convs): Sequential(\n        (0): Sequential(\n          (0): Conv2d(128, 256, kernel_size=(3, 3), stride=(2, 2), padding=(1, 1), bias=False)\n          (1): BatchNorm2d(256, eps=1e-05, momentum=0.1, affine=True, track_running_stats=True)\n          (2): ReLU()\n        )\n        (1): Sequential(\n          (0): Conv2d(256, 256, kernel_size=(3, 3), stride=(1, 1), padding=(1, 1), bias=False)\n          (1): BatchNorm2d(256, eps=1e-05, momentum=0.1, affine=True, track_running_stats=True)\n        )\n      )\n      (idconv): Conv2d(128, 256, kernel_size=(1, 1), stride=(1, 1))\n      (pool): AvgPool2d(kernel_size=2, stride=2, padding=0)\n    )\n    (7): ResBlock(\n      (convs): Sequential(\n        (0): Sequential(\n          (0): Conv2d(256, 256, kernel_size=(3, 3), stride=(1, 1), padding=(1, 1), bias=False)\n          (1): BatchNorm2d(256, eps=1e-05, momentum=0.1, affine=True, track_running_stats=True)\n          (2): ReLU()\n        )\n        (1): Sequential(\n          (0): Conv2d(256, 256, kernel_size=(3, 3), stride=(1, 1), padding=(1, 1), bias=False)\n          (1): BatchNorm2d(256, eps=1e-05, momentum=0.1, affine=True, track_running_stats=True)\n        )\n      )\n    )\n    (8): ResBlock(\n      (convs): Sequential(\n        (0): Sequential(\n          (0): Conv2d(256, 512, kernel_size=(3, 3), stride=(2, 2), padding=(1, 1), bias=False)\n          (1): BatchNorm2d(512, eps=1e-05, momentum=0.1, affine=True, track_running_stats=True)\n          (2): ReLU()\n        )\n        (1): Sequential(\n          (0): Conv2d(512, 512, kernel_size=(3, 3), stride=(1, 1), padding=(1, 1), bias=False)\n          (1): BatchNorm2d(512, eps=1e-05, momentum=0.1, affine=True, track_running_stats=True)\n        )\n      )\n      (idconv): Conv2d(256, 512, kernel_size=(1, 1), stride=(1, 1))\n      (pool): AvgPool2d(kernel_size=2, stride=2, padding=0)\n    )\n    (9): ResBlock(\n      (convs): Sequential(\n        (0): Sequential(\n          (0): Conv2d(512, 512, kernel_size=(3, 3), stride=(1, 1), padding=(1, 1), bias=False)\n          (1): BatchNorm2d(512, eps=1e-05, momentum=0.1, affine=True, track_running_stats=True)\n          (2): ReLU()\n        )\n        (1): Sequential(\n          (0): Conv2d(512, 512, kernel_size=(3, 3), stride=(1, 1), padding=(1, 1), bias=False)\n          (1): BatchNorm2d(512, eps=1e-05, momentum=0.1, affine=True, track_running_stats=True)\n        )\n      )\n    )\n  )\n  (avgpool): AdaptiveAvgPool2d(output_size=1)\n  (linear): Linear(in_features=512, out_features=10, bias=True)\n)\n\n\nAgain, we train the model using the same hyperparameters and for the same number of epochs, for comparisons sake.\n\nnum_epochs=10\nlr = 3e-3\n\nresnet18 = Resnet18()\nresnet18 = resnet18.to(device)\ncriterion = nn.CrossEntropyLoss()\noptimizer = optim.Adam(resnet18.parameters(), lr=lr)\nscheduler = optim.lr_scheduler.OneCycleLR(optimizer, max_l
…
